model/keypoint_classifier/keypoint_classifier.tflite (tflite, 6652 bytes, 6 tensors)

arith.constant f4 [12, 10]
0	0x3e9c0dda	0.30479318
1	0xbdb9a38a	-0.09064396
2	0xbe8552cc	-0.26039732
3	0x3f2e754d	0.68147737
4	0x3ef47bc6	0.47750682
5	0x3d35d8b2	0.04439611
6	0x3e754ec6	0.23955831
7	0x3eb7e003	0.35913095
8	0xbdbfec35	-0.09371225
9	0x3f069e5e	0.525854
10	0xbe0a7025	-0.13519342
11	0x3f290d00	0.6603546
12	0xbf05733a	-0.52128947
13	0x3d44f836	0.048088275
14	0x3d3e5fb5	0.046477992
15	0xbe2b32f6	-0.16718659
16	0x3e4d44e3	0.2004581
17	0xbd99131e	-0.074743494
18	0x3ed42433	0.41433868
19	0x3eff926f	0.49916407
20	0x3c884007	0.016632093
21	0x3f0f6159	0.56007916
22	0xbed8477f	-0.42242047
23	0x3e89d4b3	0.2692009
24	0xbe2bbce8	-0.16771281
25	0xbefd68b9	-0.4949396
26	0x3f2c9b99	0.67424923
27	0xbe52d65c	-0.20589584
28	0xbef308e5	-0.47467723
29	0x3a697ab8	0.0008906531
30	0x3f359167	0.7092499
31	0xbe0127a4	-0.12612778
32	0xbfa231ad	-1.267141
33	0x3ecc8c11	0.39950612
34	0x3ec669cd	0.38752595
35	0xbec47f18	-0.38378215
36	0xbe8e9e36	-0.2785508
37	0xbe94276b	-0.28936324
38	0x3ea8c25e	0.3296079
39	0xbc369b65	-0.011145447
40	0x3f503ce4	0.8134291
41	0x3e41d35d	0.18928285
42	0x3e94ae1f	0.29039094
43	0xbf245964	-0.641989
44	0xbea82036	-0.32837075
45	0xbe741076	-0.23834404
46	0x3f20bfd1	0.6279269
47	0x3cfb384e	0.030666497
48	0xbf2d2ff2	-0.67651284
49	0xbe382d1c	-0.17985958
50	0x3e0e0321	0.13868381
51	0x3ed38951	0.41315702
52	0xbdf3fc67	-0.11913376
53	0xbf09bd41	-0.53804404
54	0x3e07de64	0.13268429
55	0xbd4fd56b	-0.05074064
56	0x3e7025c9	0.23451914
57	0x3e068985	0.13138397
58	0xbe38e421	-0.18055774
59	0x3e59e041	0.21276952
60	0x3da07746	0.078352496
61	0xbe73c5cf	-0.23805927
62	0x3ec12881	0.37726215
63	0x3e231a39	0.15927972
64	0x3f7275ac	0.94710803
65	0x3ede66da	0.43437845
66	0xbef79a19	-0.48359755
67	0xbcce3c2f	-0.025175182
68	0x3d916f40	0.071012974
69	0xbe26a0a0	-0.16272211
70	0xbf00dad4	-0.50333905
71	0xbf445688	-0.76694536
72	0x3f336637	0.7007784
73	0x3ee4853d	0.44632903
74	0xbf3da615	-0.74081546
75	0x3c0ee086	0.008720523
76	0xbca535a2	-0.020167176
77	0xbf300150	-0.68752
78	0xbe85375f	-0.26018807
79	0x3f4b8430	0.7949858
80	0xbf20cbb7	-0.62810844
81	0xbeea83e3	-0.45803747
82	0x3c75d1f8	0.015003674
83	0xbdb5017f	-0.08838176
84	0xbe47770d	-0.19479008
85	0xbf87ebd9	-1.061885
86	0x3f366dd3	0.7126133
87	0xbf9cf689	-1.2262737
88	0x3f5ade87	0.854958
89	0xbf1bb658	-0.6082511
90	0x3e536d0f	0.20647071
91	0x3d973a57	0.07384174
92	0xbf43aa6e	-0.7643193
93	0xbdda2665	-0.106518544
94	0x3f0be74b	0.546498
95	0xbf051087	-0.51978344
96	0xbdaf3024	-0.08554104
97	0x3f011046	0.50415456
98	0x3ec3b844	0.3822652
99	0xbedaa267	-0.42702028
100	0xbf64aa36	-0.8932222
101	0xbe3f8b1b	-0.18705408
102	0xbf600809	-0.8751226
103	0xbe48957b	-0.19588272
104	0xbf4cd19c	-0.8000734
105	0xbeff1633	-0.49821624
106	0xbf9792b4	-1.1841645
107	0x3e4e20c6	0.2012969
108	0xbf2da3b0	-0.6782789
109	0xbe912cd8	-0.28354526
110	0xbe401971	-0.18759705
111	0xbf7ac80b	-0.9796149
112	0xbec669a5	-0.38752475
113	0xbf6c04b0	-0.9219465
114	0xbef4f821	-0.47845557
115	0xbf64691a	-0.8922287
116	0xbf40a77b	-0.75255555
117	0x3daaafe3	0.08334329
118	0xbf19048d	-0.5977257
119	0xbe78a10a	-0.24280182

arith.constant1 f4 [10, 20]
0	0x3e94546b	0.28970656
1	0x3db66ab4	0.08907071
2	0xbdff3632	-0.12461509
3	0x3e9e526a	0.30922252
4	0x3f0440b5	0.51661235
5	0x3f52e581	0.82381445
6	0xbe844e62	-0.2584105
7	0xbeb6e7cd	-0.35723725
8	0xbd906ec9	-0.070523806
9	0x3ef74424	0.48294175
10	0xbe773aa8	-0.2414347
11	0xbe524d43	-0.20537286
12	0x3e5cc643	0.21560006
13	0xbe895e40	-0.2682972
14	0x3e8493fe	0.2589416
15	0xbf2cd402	-0.67511
16	0x3dca7545	0.09885649
17	0xbeae8636	-0.3408677
18	0xbe629a80	-0.2212925
19	0xbe2f3ccf	-0.1711304
20	0xbecc9cc8	-0.39963365
21	0x3ea3b404	0.3197328
22	0x3cea3e2e	0.028594103
23	0x3dbab61d	0.091167666
24	0x3f0528b8	0.52015257
25	0xbe08f447	-0.13374434
26	0xbe8e8a48	-0.27839875
27	0xbe7893df	-0.24275158
28	0x3f09bc09	0.53802544
29	0x3f225996	0.6341795
30	0x3e9de7ca	0.30840904
31	0x3f49a176	0.78761995
32	0xbdd6cb94	-0.10488048
33	0x3ec9878e	0.39361233
34	0xbd363426	-0.044483326
35	0xbe57111e	-0.21002623
36	0x3e044735	0.12917788
37	0x3ed4bc71	0.4155002
38	0x3eefee8c	0.46861684
39	0xbded7571	-0.11594666
40	0xbea798a4	-0.32733643
41	0x3e6009bd	0.21878715
42	0x3f05dad0	0.52287006
43	0x3d92125e	0.071324095
44	0x3ccbacc2	0.02486265
45	0x3de24aad	0.110493995
46	0x3df86746	0.12129073
47	0x3ea7da5d	0.32783785
48	0x3ef884da	0.48538858
49	0x3ce81c33	0.028333759
50	0xbf3676e9	-0.7127519
51	0xbf0ed8fe	-0.55799854
52	0x3f0261ac	0.50930285
53	0x3e0c4bad	0.13700743
54	0x3f24b856	0.64343774
55	0xbe010496	-0.12599406
56	0x3ebd9c7f	0.3703346
57	0xbec05f80	-0.3757286
58	0xbe81b497	-0.25333092
59	0x3f5b7840	0.8573036
60	0x3f2b66f5	0.66953975
61	0xbe91e34c	-0.28493726
62	0x3f2a755e	0.6658534
63	0xbd76e457	-0.060276356
64	0xbc975ecb	-0.018477818
65	0x3c703d96	0.014663121
66	0xbf381764	-0.7191069
67	0x3db3cc05	0.08779148
68	0x3e81a16f	0.25318477
69	0x3e1b38c9	0.1515838
70	0xbe4de57e	-0.20107076
71	0xbe8f65de	-0.28007406
72	0x3d66149d	0.056172002
73	0x3f29ecac	0.6637676
74	0xbec227a7	-0.37920877
75	0x3e553ee3	0.2082477
76	0xbe6e19d9	-0.23252048
77	0xbd283ca5	-0.04107346
78	0xbea34f38	-0.31896377
79	0x3e6ea0b3	0.2330349
80	0x3f62c4af	0.88581365
81	0x3f1ae201	0.60501105
82	0x3e0040ba	0.12524691
83	0xbec076da	-0.37590677
84	0x3eedea59	0.46467856
85	0x3ee8f7ac	0.4550146
86	0x3f2822de	0.65678203
87	0x3ef96085	0.4870645
88	0xbbcb8c92	-0.0062118256
89	0x3eb4e473	0.35330543
90	0xbe4b578b	-0.19857614
91	0x3b230f6a	0.0024881014
92	0xbef56ed1	-0.4793611
93	0xbf179fde	-0.5922831
94	0x3e0dacfd	0.13835521
95	0xbf1c1246	-0.60965383
96	0xbe9d3ae1	-0.30708984
97	0xbf48dc82	-0.7846147
98	0xbcd8def5	-0.026473502
99	0x3e3ac169	0.18237843
100	0x3d864c96	0.06557576
101	0xbea989a3	-0.3311282
102	0x3f4b4dc7	0.79415554
103	0xbe20f0c9	-0.15716852
104	0xbe382991	-0.17984606
105	0x3ca13afc	0.019681446
106	0x3b2f4957	0.0026746595
107	0xbe2a1a17	-0.16611515
108	0x3f283c1b	0.65716714
109	0xbe00cc51	-0.1257794
110	0x3e639167	0.22223435
111	0xbf1d3ed5	-0.61424
112	0x3d942212	0.07233061
113	0x3ed58069	0.41699532
114	0xbde5771e	-0.112043604
115	0x3d975bf6	0.07390587
116	0xbea070e5	-0.31336132
117	0xbe1a5289	-0.15070547
118	0xbf422dbb	-0.7585103
119	0x3ed704a9	0.41995743
120	0xbe9e260b	-0.308884
121	0x3f00042e	0.5000638
122	0xbe73a326	-0.23792705
123	0x3f0184c1	0.5059319
124	0xbd7ce358	-0.06174025
125	0x3e3449fc	0.17606348
126	0x3e067cef	0.13133596
127	0xbecfb0b5	-0.40564504
128	0x3eb181ac	0.34669244
129	0xbd598e75	-0.053114373
130	0x3eae1b40	0.34005165
131	0x3f2d6fda	0.67748797
132	0x3effbd08	0.49948907
133	0x3f2649aa	0.6495615
134	0x3e04a6ac	0.12954205
135	0x3ed87aca	0.4228118
136	0x3e2b79f5	0.16745742
137	0x3f4f3b6a	0.80950034
138	0x3eda8916	0.42682713
139	0xbe8aea3f	-0.2713184
140	0x3e6cd961	0.23129798
141	0x3e3d128a	0.18464103
142	0x3e5b0210	0.21387506
143	0xbe01636f	-0.12635587
144	0x3e2656f6	0.1624411
145	0x3f3bcbbd	0.73357755
146	0x3d80921e	0.0627787
147	0x3ceec432	0.029146288
148	0x3d6dc0f0	0.058045328
149	0xbc85cec9	-0.016333954
150	0x3f454e35	0.7707246
151	0x3f0af99d	0.5428713
152	0xbd685cb9	-0.056729052
153	0xbd288137	-0.041138854
154	0x3eb744d3	0.35794696
155	0x3db79726	0.08964376
156	0x3e4091d6	0.18805632
157	0x3d20983c	0.039207682
158	0x3f24aae6	0.6432327
159	0x3e991a7a	0.29903013
160	0x3f3cbf13	0.73729056
161	0x3e9f0682	0.31059653
162	0xbf2b7063	-0.66968364
163	0xbe714482	-0.2356129
164	0x3daa0b1c	0.083029
165	0xbbc6cfab	-0.0060672364
166	0x3f36cb22	0.71403706
167	0x3f59f7b6	0.851436
168	0xbe2edeb1	-0.17077138
169	0x3e77d321	0.24201633
170	0xbe3faba0	-0.18717813
171	0xbd6496c1	-0.055807833
172	0x3dfee629	0.12446243
173	0x3f02292a	0.5084406
174	0xbeb958f6	-0.36200684
175	0x3f68080f	0.90637296
176	0xbe8a3384	-0.26992428
177	0x3ddb23ec	0.10700211
178	0x3e2476be	0.16060922
179	0x3e2b4ee5	0.16729315
180	0x3e9b8001	0.30371097
181	0xbdb46bb3	-0.088096045
182	0x3eb872f1	0.36025193
183	0x3f40bd19	0.7528854
184	0x3d1b9dd4	0.037992314
185	0xbe8f2123	-0.2795497
186	0x3e91df49	0.28490666
187	0x3d68e8a6	0.056862496
188	0x3ebfefab	0.3748754
189	0xbdbb1b55	-0.091360725
190	0x3debd31c	0.11514875
191	0x3e69dd7d	0.22838397
192	0xbed4e7e5	-0.4158317
193	0x3ba15426	0.0049233614
194	0x3f1fef66	0.6247467
195	0x3ee2d48a	0.4430278
196	0x3f17ac88	0.59247637
197	0x3e42e111	0.19031169
198	0x3f68e7de	0.909788
199	0x3e2bfa9b	0.16794817

arith.constant2 f4 [12]
0	0xbec5ca8e	-0.386311
1	0xbe9acec4	-0.30235875
2	0x3e6405a1	0.22267772
3	0xbddccd2a	-0.107813194
4	0x3ec38786	0.38189334
5	0xbde9019e	-0.113772616
6	0xbd88e199	-0.06683654
7	0x3f26cd5c	0.65157104
8	0xbcac0a11	-0.021000894
9	0xbe702270	-0.23450637
10	0xbeb2941a	-0.34878618
11	0xbee2e20f	-0.44313094

arith.constant3 f4 [10]
0	0x3eb09cd5	0.34494653
1	0x3e32b00c	0.17449969
2	0x3f5183aa	0.8184153
3	0x3d81096e	0.06300627
4	0xbe56c84f	-0.20974849
5	0xbcf2202c	-0.029556356
6	0x3f1552f0	0.5832968
7	0xbe44dcf1	-0.19224907
8	0xbd65b3d5	-0.056079704
9	0x3df829ec	0.12117371

sequential_5_1/dense_15_1/BiasAdd/ReadVariableOp/resource f4 [20]
0	0xbe9ea91d	-0.30988398
1	0xbf17ef68	-0.5934968
2	0xbead0284	-0.33790982
3	0x3dc810fc	0.097688645
4	0xbe8b119b	-0.2716187
5	0xbe40eb11	-0.1883967
6	0xbe463cbf	-0.1935911
7	0xbd3feb1d	-0.04685508
8	0x3d722511	0.05911738
9	0xbeb6a929	-0.35675934
10	0xbcc43e99	-0.02395563
11	0xbd17e8de	-0.037087314
12	0x3e2e889c	0.170443
13	0x3d355ab2	0.044275947
14	0xbdb591d8	-0.08865708
15	0xbebc117d	-0.36732092
16	0xbe6d773d	-0.23190017
17	0xbd633cb9	-0.05547783
18	0xbe6f8ae3	-0.23392825
19	0xbe939bdc	-0.2882985

sequential_5_1/dense_15_1/MatMul f4 [20, 42]
0	0x3e77cea8	0.24199927
1	0x3e851c38	0.25998092
2	0xbd9d0d77	-0.07668584
3	0x3ea3c145	0.3198339
4	0x3d59426b	0.053041857
5	0x3c30b789	0.010785946
6	0xbe79a544	-0.2437945
7	0x3e10cf9d	0.14141698
8	0xbee09753	-0.4386545
9	0x3d5a88a5	0.05335297
10	0x3eaa9eb7	0.33324215
11	0x3e9add53	0.30246982
12	0xbba891e0	-0.005144343
13	0x3e21b78c	0.15792674
14	0xbcf71146	-0.030159604
15	0x3dddce69	0.10830385
16	0xbcf3f0b3	-0.02977786
17	0x3d75aea6	0.05998101
18	0x3e84f344	0.25966847
19	0x3e542e55	0.207208
20	0x3d83b733	0.06431427
21	0x3e3021ac	0.17200345
22	0xbd040465	-0.032230753
23	0xbc8bd40a	-0.017068882
24	0xbd5de3b4	-0.054172233
25	0x3ded2a08	0.115802824
26	0x3cc501d3	0.024048721
27	0x3e198eb9	0.1499585
28	0x3b68faef	0.0035549959
29	0x3d65d1bb	0.056108218
30	0xbe236595	-0.15956719
31	0xbf12c5cd	-0.5733307
32	0x3dccd3ed	0.10001359
33	0xbf412ee5	-0.7546218
34	0x3e38bdad	0.18041106
35	0x3d6371fd	0.05552863
36	0x3dde5a63	0.10857084
37	0xbe17de7b	-0.14830963
38	0x3db754a8	0.08951694
39	0xbed4f333	-0.41591796
40	0xbdd78ce3	-0.10524919
41	0xbf4f8d6c	-0.8107517
42	0x3e7e0d14	0.24809676
43	0xbe68e51e	-0.22743651
44	0x3efc47d6	0.49273556
45	0x3b6ccc04	0.0036132345
46	0x3f2b25c9	0.6685453
47	0x3e35ce0e	0.17754385
48	0x3e73c4c1	0.23805524
49	0xbedcd334	-0.43129885
50	0x3eae2a77	0.34016773
51	0xbef988ec	-0.48737276
52	0x3d017717	0.031607714
53	0xbe4eab0c	-0.20182437
54	0x3e2dfec5	0.16991718
55	0xbeee29b2	-0.46516186
56	0x3dc9141f	0.09818291
57	0xbf0f8c1f	-0.5607318
58	0x3e33f1aa	0.17572656
59	0xbf17e824	-0.59338593
60	0xbe489bb4	-0.19590646
61	0xbd06e3d1	-0.032932106
62	0x3da088e8	0.07838613
63	0xbe90534d	-0.28188553
64	0xbd11b255	-0.03557046
65	0xbe9974b5	-0.29971853
66	0x3e4598a4	0.19296509
67	0xbd9e9e5d	-0.07745049
68	0xbdc67b8b	-0.09691533
69	0xbc10129d	-0.0087935
70	0xbe0471ec	-0.12934083
71	0xbce5bac2	-0.028043155
72	0xbddd186b	-0.10795673
73	0x3d81a60f	0.06330501
74	0xbda33bd3	-0.07970395
75	0xbe2da92b	-0.16959064
76	0xbe87d574	-0.2653004
77	0xbe42c9fe	-0.19022366
78	0xbecdb14f	-0.40174338
79	0xbe2c3bce	-0.16819689
80	0xbe30fb53	-0.17283373
81	0xba2e8016	-0.00066566595
82	0xbdcf177b	-0.101119004
83	0x3d801878	0.06254667
84	0xbe721aa8	-0.23642981
85	0xbc617bc0	-0.013762414
86	0xbec588f0	-0.38581038
87	0x3e0dddec	0.13854188
88	0xbe75426a	-0.23951116
89	0xbe23739c	-0.1596207
90	0xbea3a478	-0.31961417
91	0x3dae3d1b	0.08507749
92	0xbde40fd0	-0.111358285
93	0x3b623f9a	0.0034522773
94	0xbe811b73	-0.25216255
95	0x3e809e7e	0.2512092
96	0x3ca2bd7b	0.019865742
97	0x3c046dd5	0.008082827
98	0x3d05d957	0.032677975
99	0x3de353f6	0.11099999
100	0x3ec585b9	0.38578585
101	0xbd9a407b	-0.0753183
102	0xbea8f2b7	-0.32997677
103	0x3ebdcb5f	0.37069222
104	0xbe47d402	-0.19514468
105	0xbca8f307	-0.020623697
106	0xbd2a0c21	-0.041515473
107	0xbddb7382	-0.10715391
108	0x3dbaeae2	0.091268316
109	0xbd90905e	-0.07058786
110	0x3acefefe	0.0015792546
111	0x3ecead18	0.40366435
112	0xbb16759f	-0.0022958291
113	0x3da19917	0.07890528
114	0x3eb6c8ce	0.35700077
115	0xbe096f5a	-0.13421384
116	0x3f3c1409	0.7346807
117	0x3bb161f6	0.005413289
118	0x3cc371a7	0.023857905
119	0x3de14236	0.10998957
120	0xbd6a6946	-0.057229303
121	0x3dba66fc	0.09101674
122	0x3ea76596	0.3269469
123	0x3b8658d0	0.0040999427
124	0x3f111632	0.5667449
125	0xbeb24e10	-0.34825182
126	0x3d402120	0.04690659
127	0x3dd6ce5c	0.10488579
128	0xbd96856a	-0.073496655
129	0x3ed741cb	0.42042384
130	0x3e19d42c	0.15022343
131	0x3e689a74	0.22715169
132	0xbc504df1	-0.012713895
133	0x3e65a118	0.22424734
134	0x3ee8f83e	0.45501894
135	0x3e80533f	0.25063512
136	0xbd46232b	-0.048373383
137	0x3d89573e	0.06706093
138	0xbf045f38	-0.5170779
139	0xbe326024	-0.17419487
140	0xbf0cf7b6	-0.55065477
141	0xbe5fa3c9	-0.21839823
142	0xbf3d77f9	-0.7401119
143	0xbe35b1b2	-0.17743567
144	0xbe86f76c	-0.26360643
145	0xbd5e8e5c	-0.054334983
146	0xbe9410ef	-0.2891917
147	0x3d4b44d9	0.049626205
148	0xbe6cb8b1	-0.23117329
149	0xbe6f1f1f	-0.23351716
150	0xbe568885	-0.20950516
151	0x3d2edd8d	0.042691756
152	0xbccbfd4b	-0.024901053
153	0xbdc91d88	-0.09820086
154	0x3a8496e0	0.0010115765
155	0xbcb347a5	-0.021884749
156	0xbe15a364	-0.1461311
157	0x3e89b893	0.2689863
158	0xbde61ac2	-0.112355724
159	0x3e99b27b	0.30018982
160	0xbd0f7056	-0.03501924
161	0x3dc417b4	0.095748335
162	0x3c2542b7	0.010086707
163	0x3de72ee0	0.112882376
164	0xbed21c7c	-0.41037357
165	0x3eb3a312	0.3508535
166	0xbcd16775	-0.025562027
167	0x3e90a0e4	0.2824775
168	0x3cf0e000	0.029403687
169	0xbe3ece60	-0.18633413
170	0x3cae0fcc	0.021247767
171	0x3ee8e484	0.45486844
172	0x3dcda2bc	0.10040805
173	0x3e9db088	0.30798745
174	0x3e6a4b00	0.22880173
175	0x3e0f1735	0.13973697
176	0x3ec86c5d	0.39145175
177	0x3e883e41	0.26609996
178	0xbdc5f938	-0.09666675
179	0xbcaaea42	-0.020863656
180	0x3c11c7da	0.008897746
181	0x3e3adb4d	0.18247719
182	0xbc198679	-0.00937044
183	0xbd944585	-0.07239822
184	0xbd701444	-0.058613077
185	0xbe44cd9b	-0.19219057
186	0xbe113148	-0.14178956
187	0xbe94ab6f	-0.29037043
188	0xbd8119fd	-0.06303785
189	0xbecc0077	-0.39844105
190	0x3c7f3989	0.015577682
191	0xbf2544f0	-0.64558315
192	0xbe1488a1	-0.14505245
193	0xbefc3697	-0.492604
194	0xbe3df48f	-0.18550323
195	0xbe3deba1	-0.18546917
196	0x3c3a410b	0.0113680465
197	0xbf001d4f	-0.5004472
198	0xbdb8c724	-0.09022358
199	0xbeee635e	-0.46560186
200	0xbd61140f	-0.05495077
201	0xbe8876bf	-0.26653096
202	0xbc71f358	-0.01476749
203	0xbf2b92cb	-0.67020863
204	0xbd33cf8d	-0.043899108
205	0xbf0d862b	-0.5528285
206	0xbc171710	-0.009221807
207	0xbef82a62	-0.48469836
208	0xbd1a78d6	-0.037712894
209	0xbedd7a48	-0.43257356
210	0xbd7e16e4	-0.06203355
211	0x3e67eeb8	0.22649658
212	0xbe0354ad	-0.1282527
213	0x3eb9f4f3	0.36319694
214	0x3e0490f0	0.12945914
215	0x3ed26f6d	0.41100636
216	0x3e0c2a6d	0.13688059
217	0x3ebaaf2a	0.36461765
218	0x3e5c8a2b	0.21537082
219	0x3ee5240f	0.44754073
220	0x3d6ecd6f	0.058301385
221	0x3e64013e	0.22266099
222	0x3db6004e	0.08886777
223	0x3dc165fb	0.09443279
224	0xbe088e4d	-0.13335533
225	0xbe4f3aed	-0.20237322
226	0xbde58f91	-0.11209024
227	0xbf1fb47b	-0.62384766
228	0x3d7c3582	0.061574467
229	0x3d7a1df7	0.061063733
230	0xbe0f8d30	-0.14018703
231	0xbd480d63	-0.04884089
232	0xbe887183	-0.26649103
233	0xbe8c7002	-0.27429205
234	0xbe5024ae	-0.20326492
235	0xbf699dd1	-0.91256434
236	0xbd87ec87	-0.06636911
237	0xbdf92505	-0.12165264
238	0xbda51b86	-0.0806189
239	0x3e0148a0	0.1262536
240	0x3dca2c71	0.09871758
241	0xbd7cc9d4	-0.061715916
242	0x3e4b3927	0.1984602
243	0xbd30e053	-0.043182682
244	0xbe805843	-0.25067338
245	0x3e098397	0.13429104
246	0xbdcab9a9	-0.09898693
247	0x3e6b21e8	0.22962153
248	0x3d6a7faf	0.057250675
249	0x3e8a4c06	0.27011126
250	0x3e16fb9e	0.14744422
251	0x3dc803e6	0.097663686
252	0x3d1cf308	0.03831771
253	0x3e10b05e	0.14129779
254	0x3e6d0684	0.23147017
255	0xbef0e4eb	-0.4704965
