model/point_history_classifier/point_history_classifier.tflite (tflite, 6528 bytes, 6 tensors)

arith.constant f4 [12, 10]
0	0x3f52f83f	0.82410043
1	0x3f2e2ee2	0.6804029
2	0xbfab3984	-1.3376927
3	0xbf3fc562	-0.7491056
4	0xbf3f0106	-0.74610937
5	0xbe55ee15	-0.20891602
6	0xbf9767fa	-1.1828606
7	0xbdca1aad	-0.09868369
8	0xc017ef87	-2.3739946
9	0x3f054023	0.5205099
10	0xbd932a02	-0.07185747
11	0x3dc60e7a	0.0967073
12	0xbf031d71	-0.512168
13	0xbf4c223c	-0.7973974
14	0xbf04c710	-0.51866245
15	0x3efcd7cd	0.49383393
16	0x3d86af38	0.06576389
17	0xbf39c072	-0.72559273
18	0xbeb5e23d	-0.3552417
19	0x3ef298aa	0.47382098
20	0x3ed05203	0.4068757
21	0xbe896deb	-0.26841673
22	0xbf138231	-0.5762053
23	0xbf0d5928	-0.55214167
24	0x3b418deb	0.0029534053
25	0x3e0318c7	0.1280242
26	0x3ede75f8	0.43449378
27	0xbeb3152b	-0.34977087
28	0xbdff7c4c	-0.124748796
29	0x3f0746b7	0.5284228
30	0x3eec8745	0.46196952
31	0x3dcbfc3e	0.09960221
32	0x3d89b7e1	0.06724525
33	0xbea22f80	-0.31676865
34	0xbe95b3a3	-0.29238614
35	0x3e08520c	0.13312548
36	0xbc2b03ff	-0.010437964
37	0xbe8b75ee	-0.2723841
38	0x3e853c03	0.26022348
39	0x3e92ff3b	0.2871035
40	0xbf70653d	-0.9390448
41	0x3d04aab6	0.032389365
42	0x3cdb0e63	0.026740259
43	0xbd3e26e2	-0.0464238
44	0x3ab9be78	0.0014171144
45	0xbde6444e	-0.11243497
46	0xbd6d5343	-0.057940733
47	0xbe79e53f	-0.24403857
48	0xbf590fac	-0.8478954
49	0xbf7ebade	-0.99503887
50	0xbe9435c7	-0.2894728
51	0xbf29aa0c	-0.66275096
52	0x3e276937	0.1634873
53	0x3e919671	0.2843509
54	0xbede1ac9	-0.4337981
55	0xbf1115ce	-0.56673896
56	0x3e4f58d4	0.20248729
57	0x3d585fbe	0.052825682
58	0x3d76ae64	0.060224906
59	0xbf8b369f	-1.0876044
60	0xbe59418b	-0.21216409
61	0xbf78bda0	-0.97164345
62	0xbdba2e34	-0.09090844
63	0xbe1a1436	-0.15046772
64	0x3e4d351b	0.2003979
65	0xbf1c1da6	-0.6098274
66	0xbdea9853	-0.11454835
67	0xbdd05dea	-0.10174163
68	0xbf2bfd40	-0.67183304
69	0xbed7dc7b	-0.421604
70	0xbeeb2b7e	-0.4593162
71	0xbf435c4f	-0.76312727
72	0xbd194aed	-0.03742497
73	0x3da6037f	0.081061356
74	0xbe5bc4c5	-0.2146178
75	0xbf185d4e	-0.5951737
76	0xbf3c68f0	-0.7359762
77	0x3ed0ada0	0.40757465
78	0xbe19c7d6	-0.15017638
79	0xbf4d69c0	-0.80239487
80	0x3efe92e1	0.49721435
81	0x3f1310b2	0.5744735
82	0x3f2ad743	0.66734713
83	0x3ef9da1d	0.4879922
84	0xbd5caee7	-0.053877737
85	0x3e9a310e	0.3011555
86	0xbc2931a3	-0.010326776
87	0xbe4509c1	-0.19242002
88	0x3ef20a95	0.47273698
89	0xbea35c43	-0.31906328
90	0x3e8e06a2	0.27739435
91	0x3dcea634	0.100902945
92	0x3ee06c79	0.43832758
93	0xbed8e613	-0.42363033
94	0x3e683f6c	0.22680444
95	0x3e59da69	0.21274723
96	0x3ed9f9c1	0.4257336
97	0xbeea970c	-0.45818365
98	0x3ea12cf9	0.31479624
99	0x3d9bf5db	0.076152526
100	0xbf053051	-0.5202685
101	0xbf82b0e7	-1.0210236
102	0xbef8f5a5	-0.48624912
103	0xbef41552	-0.47672516
104	0x3e8f7b9a	0.28023988
105	0xbf7e604a	-0.99365675
106	0xbe747ab7	-0.23874937
107	0xbed8ac4a	-0.42318946
108	0xbcc734e8	-0.02431722
109	0xbf5893a5	-0.8460029
110	0xbe1ba2a1	-0.15198757
111	0xbea9c3e5	-0.33157268
112	0x3dde216a	0.10846217
113	0x3d77f5fa	0.060537316
114	0xbd95b5dc	-0.073100775
115	0xbeda1a51	-0.42598203
116	0xbdaaad31	-0.08333815
117	0xbeab5a7e	-0.33467478
118	0x3db61417	0.088905506
119	0xbf830aab	-1.0237631

arith.constant1 f4 [10, 24]
0	0xbef3549f	-0.47525498
1	0x3e4be0f8	0.19910038
2	0x3ef3bbad	0.47604123
3	0x3e6df5f6	0.23238358
4	0x3ea6c945	0.3257543
5	0x3ddf9bd3	0.10918393
6	0x3e1ef9b0	0.15524936
7	0xbebff2b5	-0.37489858
8	0x3ee7bc89	0.45261028
9	0xbe516a43	-0.20450692
10	0x3eb44e94	0.352162
11	0xbec6f2d8	-0.3885715
12	0x3ea81fb3	0.32836685
13	0x3e53494f	0.20633434
14	0xbd54c6e5	-0.051947493
15	0x3ec3645c	0.38162506
16	0x3ebbbbb9	0.3666666
17	0x3ebe54c8	0.37174058
18	0x3e69a3eb	0.22816436
19	0xbe8d1799	-0.27557066
20	0xbebe2954	-0.37140906
21	0x3ec1e21c	0.3786782
22	0x3f263cc3	0.64936465
23	0x3f0484ce	0.51765144
24	0x3d86e3d3	0.06586423
25	0x3f07af7e	0.53002155
26	0x3e8eedc7	0.27915785
27	0xbf173401	-0.59063727
28	0x3da2048c	0.079110235
29	0xbda71b3a	-0.0815949
30	0x3e93d3ff	0.28872678
31	0x3f07db1f	0.5306873
32	0x3f0ec52d	0.55769616
33	0x3d57a10e	0.052643828
34	0x3d6044dc	0.05475317
35	0x3e93a39c	0.28835762
36	0xbe69d762	-0.22836068
37	0xbc595fef	-0.013267501
38	0x3ea7a658	0.32744098
39	0xbecd9f67	-0.40160677
40	0x3ef9e183	0.48804864
41	0x3ed07426	0.40713614
42	0x3ac2a5f5	0.0014850484
43	0xbefbf27f	-0.49208447
44	0xbeffddaa	-0.49973804
45	0xbf0ab6fa	-0.5418545
46	0x3e8ef1b2	0.27918774
47	0x3f1101c3	0.56643313
48	0x3e5af6ba	0.21383181
49	0x3d354066	0.04425087
50	0x3e9e5956	0.30927533
51	0x3f1b743b	0.6072423
52	0x3e677922	0.22604802
53	0x3da1f4d3	0.07908025
54	0xbe3be44c	-0.18348807
55	0x3da6725c	0.08127281
56	0xbea78459	-0.3271816
57	0x3f06d55a	0.526693
58	0x3cddff3a	0.02709924
59	0xbef7439f	-0.48293778
60	0x3e94f420	0.29092503
61	0x3ecea284	0.40358365
62	0x3ead1730	0.33806753
63	0x3e68ef90	0.22747636
64	0x3f514d3c	0.81758475
65	0xbd0b4dcb	-0.034009736
66	0x3ed0da2f	0.4079146
67	0xbd72a72c	-0.05924146
68	0x3f1adf9c	0.6049745
69	0x3f353029	0.7077661
70	0x3cf07c7d	0.029356236
71	0x3ec4a1a6	0.38404578
72	0xbe87d096	-0.26526326
73	0xbcd4a90b	-0.025959512
74	0x3d488f4e	0.04896479
75	0x3e9227ef	0.28546092
76	0xbd45e975	-0.048318345
77	0xbe703626	-0.23458156
78	0xbd869bf6	-0.06572716
79	0x3de2dfce	0.110778436
80	0xbe059276	-0.13044152
81	0x3db6ca1a	0.089252666
82	0x3e71defd	0.2362022
83	0x3e1bbcd6	0.15208754
84	0xbe7d2425	-0.2472082
85	0xbd9bc4aa	-0.0760587
86	0x3e383e5a	0.17992535
87	0x3db35c6b	0.08757862
88	0xbefeb09b	-0.49744114
89	0x3e82603d	0.2546405
90	0xbe1eaf98	-0.15496671
91	0xbd1042d4	-0.035219982
92	0x3edbd4ef	0.42935893
93	0x3f0107b6	0.5040239
94	0x3ee6e15e	0.45093817
95	0x3f356b59	0.70866925
96	0xbedd0a7e	-0.43172067
97	0xbe00811d	-0.12549253
98	0x3e675e3e	0.22594544
99	0x3f0fc19c	0.561548
100	0x3da71b53	0.081595086
101	0xbe233291	-0.15937258
102	0xbe842717	-0.25811073
103	0x3eac08a1	0.33600333
104	0xbea3db7d	-0.32003394
105	0xbe49ae8c	-0.1969549
106	0xbe098969	-0.13431324
107	0xbdbb11e5	-0.091342725
108	0xbe99bd76	-0.3002736
109	0xbd85f049	-0.065399714
110	0x3e511b9e	0.20420691
111	0x3e4cba0d	0.19992848
112	0xbcbee4f0	-0.023302525
113	0x3d563b89	0.05230287
114	0xbe268c2f	-0.16264413
115	0xbed0009f	-0.40625474
116	0xbe8b8091	-0.27246526
117	0x3e0c2147	0.1368457
118	0xbe49b7ca	-0.19699016
119	0xbe06f289	-0.13178457
120	0x3f46cf60	0.7766018
121	0x3dd15f88	0.10223299
122	0x3efe4eae	0.49669403
123	0xbdf61760	-0.12016177
124	0x3eddb09b	0.43298802
125	0x3f04679f	0.51720613
126	0x3e7a0b47	0.24418364
127	0x3f2a3ca5	0.66498786
128	0x3eecbd06	0.46237963
129	0x3f5caf9c	0.8620546
130	0x3ed9fb4c	0.42574537
131	0x3f5e0576	0.8672708
132	0x3ec0e17e	0.37672037
133	0x3f3a83a0	0.72857094
134	0x3dea075a	0.114271834
135	0x3e58b7c7	0.21163855
136	0x3ebe3b2f	0.37154528
137	0x3e8b638e	0.27224392
138	0x3ed8f799	0.42376402
139	0x3f170903	0.58998126
140	0x3dc66290	0.09686768
141	0x3e8cf954	0.27533972
142	0x3ed47b00	0.41500092
143	0xbdc2da37	-0.095142774
144	0xbdffe066	-0.124939725
145	0x3e14b90c	0.14523715
146	0x3c77c1a3	0.01512185
147	0xbddca60c	-0.107738584
148	0xbe63d1c1	-0.22247984
149	0x3eddd879	0.43329218
150	0xbd8b62ef	-0.068059795
151	0xbe1872b4	-0.14887506
152	0x3e75b503	0.23994832
153	0x3ecf0405	0.40432754
154	0xbd844ef4	-0.064603716
155	0x3e5f3cf0	0.2180059
156	0x3ecab736	0.39592904
157	0xbe7a7778	-0.24459636
158	0xbecbea4a	-0.39827186
159	0x3e1d03cf	0.15333484
160	0xbdf3e443	-0.11908772
161	0x3e84a988	0.25910592
162	0x3f467248	0.7751813
163	0x3f1a5c97	0.6029753
164	0x3f103976	0.5633768
165	0x3f16039d	0.58599263
166	0xbde092ec	-0.10965523
167	0x3eb03b4a	0.34420234
168	0x3ebd5598	0.36979365
169	0xbe4f5aa5	-0.20249422
170	0xbca05c5d	-0.019575292
171	0x3e6cf81e	0.23141524
172	0xbe0716b3	-0.13192253
173	0x3e724d0c	0.23662204
174	0x3d35760a	0.044302024
175	0xbec17c80	-0.37790298
176	0xbe0eeb05	-0.1395684
177	0x3e556f5b	0.2084326
178	0xbeed27a9	-0.4631932
179	0xbefa4023	-0.48877057
180	0x3e63f905	0.22262962
181	0xbe8cb5f0	-0.27482557
182	0xbe684263	-0.22681575
183	0x3e8e0389	0.27737072
184	0xbeecbf1d	-0.46239558
185	0xbee59717	-0.44841835
186	0x3d85d48f	0.06534683
187	0xbed59141	-0.41712382
188	0xbe31db50	-0.17368817
189	0x3d96ac66	0.07357101
190	0x3e05d55a	0.13069668
191	0x3ddccbd2	0.10781063
192	0x3f5c64f8	0.86091566
193	0x3dc7cada	0.09755488
194	0x3da7ebba	0.08199258
195	0x3f3cea75	0.73795253
196	0x3dad4052	0.08459534
197	0x3f4dcd8a	0.8039175
198	0x3e0f7c08	0.14012158
199	0x3f5e83e2	0.8691999
200	0x3df8f99d	0.12156985
201	0x3eea4455	0.45755258
202	0x3d787900	0.06066227
203	0x3f64b078	0.8933177
204	0x3f66f07d	0.90210706
205	0x3f7782d3	0.96683997
206	0x3ebf01a1	0.3730593
207	0x3f9e10ad	1.2348839
208	0x3f246f80	0.64232635
209	0x3dc59045	0.09646658
210	0x3ebae880	0.36505508
211	0x3f81d8b9	1.0144264
212	0x3f3baff4	0.7331536
213	0x3f2c8366	0.67388
214	0x3eb35096	0.3502242
215	0x3f07bfd0	0.5302706
216	0x3f0e28d3	0.5553104
217	0x3f4a365c	0.78989196
218	0x3f5bc117	0.85841507
219	0x3e2a61d7	0.16638885
220	0x3f6b40b1	0.91895586
221	0x3e029d69	0.1275536
222	0x3f1d6806	0.6148685
223	0xbea77ba0	-0.32711506
224	0x3e7cf586	0.24703035
225	0x3ece729d	0.40321818
226	0x3f2f5565	0.68489677
227	0xbe0d24d5	-0.13783582
228	0x3ef904fb	0.48636612
229	0x3d56cfe9	0.052444372
230	0x3f5a99e9	0.853911
231	0xbe94fd44	-0.29099476
232	0x3c9572e7	0.018243266
233	0x3f6f63c0	0.9351158
234	0x3ec5f9a5	0.38667026
235	0x3c9b7845	0.018978247
236	0xbd7e6ee4	-0.062117472
237	0x3e4c4d08	0.1995126
238	0xbecfbd61	-0.40574172
239	0xbe58b0d6	-0.21161208

arith.constant2 f4 [12]
0	0x3f1793ce	0.5920991
1	0x3ed7ea8d	0.42171136
2	0x3e8ac68f	0.27104613
3	0x3e184ee0	0.14873838
4	0xbe9bd1e7	-0.3043358
5	0xbe8c338e	-0.27383083
6	0xbec009e4	-0.37507546
7	0xbe9639da	-0.29341012
8	0xbecb27a4	-0.3967868
9	0xbda31dbe	-0.07964657
10	0xbe82104c	-0.2540306
11	0xbea7610a	-0.32691222

arith.constant3 f4 [10]
0	0x3eb14ddd	0.34629717
1	0x3e96d90a	0.29462463
2	0xbe9e6a79	-0.30940607
3	0xbe9d540e	-0.3072819
4	0xbde21dae	-0.11040817
5	0xbc554546	-0.013017004
6	0xbcf7bbbf	-0.030240892
7	0xbe32f77f	-0.17477225
8	0xbe8097f1	-0.25115922
9	0x3f5198b9	0.8187366

sequential_2_1/dense_6_1/BiasAdd/ReadVariableOp/resource f4 [24]
0	0xbcc676dd	-0.0242266
1	0x3f1cfc7c	0.6132276
2	0x3ef771b5	0.4832894
3	0xbbf54d8c	-0.007486051
4	0x3ee52258	0.44752765
5	0xbc783ccc	-0.015151214
6	0x3e8ef146	0.27918452
7	0xbb9684ed	-0.0045934827
8	0x3eb7560c	0.35807836
9	0xbb7dfa52	-0.003875394
10	0x3f0611c8	0.5237088
11	0xb97d4ee2	-0.00024157346
12	0xbc3bf78b	-0.011472593
13	0xbb466cf6	-0.0030277348
14	0x3d80778c	0.06272802
15	0xbbb23f12	-0.0054396475
16	0xbcc4b494	-0.024011888
17	0x3efbd193	0.4918333
18	0xbbdb24dd	-0.006687744
19	0xbc60ecb1	-0.013728307
20	0xba94873a	-0.0011331805
21	0xbbbdaa94	-0.0057881568
22	0xbe802ae9	-0.25032738
23	0xbd6724a2	-0.05643142

sequential_2_1/dense_6_1/MatMul f4 [24, 32]
0	0x3e6dab9c	0.23209995
1	0x3e7c25e0	0.24623823
2	0xbf08abe3	-0.5338728
3	0xbec3543f	-0.38150212
4	0xbe484335	-0.19556887
5	0xbdc9e56d	-0.098582126
6	0xbf49cc6c	-0.7882755
7	0xbef8bd6e	-0.48582023
8	0xbeba361c	-0.36369407
9	0xbbce90d4	-0.006303886
10	0xbef6694f	-0.4812722
11	0xbe8478e8	-0.25873494
12	0xbe14322d	-0.14472266
13	0xbe7a0c4a	-0.2441875
14	0xbe77c84e	-0.24197504
15	0xbed5b432	-0.4173904
16	0xbe80ee33	-0.25181732
17	0xbee77e93	-0.45213756
18	0xbdc4a006	-0.096008345
19	0xbf127a2f	-0.5721769
20	0xbd8447f4	-0.064590365
21	0xbf009626	-0.5022911
22	0xbe86fe21	-0.2636576
23	0xbf450927	-0.7696709
24	0x3c5acc85	0.013354425
25	0xbf25a416	-0.647035
26	0x3e10245e	0.14076373
27	0xbe5de80e	-0.21670553
28	0xbe683621	-0.22676899
29	0xbf0f0b7a	-0.55876887
30	0xbeb7f9a2	-0.35932642
31	0xbf2c86a7	-0.67392963
32	0x3e199646	0.14998731
33	0x3b358200	0.0027695894
34	0x3e5542fa	0.20826331
35	0xbe5689ca	-0.20951
36	0xbd0154a9	-0.03157488
37	0xbd5a1dd6	-0.05325111
38	0xbe0e056b	-0.13869254
39	0xbe29c5fa	-0.16579428
40	0x3d4e8cfc	0.050427422
41	0xbe677b8b	-0.22605722
42	0xbdbbfcf1	-0.09179104
43	0x3e7f9ac0	0.24961376
44	0x3e0b0ed0	0.1357987
45	0xbe52ce0b	-0.20586412
46	0x3c3c4b5e	0.011492578
47	0x3e281103	0.1641274
48	0xbdf57464	-0.119850904
49	0xbd96f60a	-0.07371147
50	0x3e5ecd6a	0.21758047
51	0x3e28e03e	0.16491792
52	0xbe51b6d8	-0.20479906
53	0xbe0e7fc5	-0.13915928
54	0xbe897baf	-0.26852176
55	0xbd9fb883	-0.07798865
56	0xbc1030b4	-0.008800674
57	0x3b61972b	0.0034422379
58	0x3dd2aa0b	0.10286339
59	0x3e9071a2	0.28211695
60	0xbdceedfc	-0.10103986
61	0x3db126c0	0.08649969
62	0xbe9a1117	-0.30091164
63	0xbe298ffc	-0.16558832
64	0xbe4008d4	-0.18753368
65	0x3e5662c0	0.20936108
66	0x3e5edf5c	0.21764892
67	0x3ee39a09	0.44453457
68	0x3ca149b9	0.019688474
69	0x3d1ae6c9	0.03781775
70	0xbe1cdd61	-0.15318824
71	0xbcc12b68	-0.023580268
72	0x3e5031bb	0.2033147
73	0x3e34fd61	0.17674781
74	0x3e8611da	0.26185495
75	0xbddfc625	-0.10926465
76	0x3dd23120	0.10263276
77	0xbb40b987	-0.0029407458
78	0xbda72bf2	-0.08162679
79	0x3d8a4d39	0.0675301
80	0xbe573ca7	-0.21019231
81	0xbe3062c9	-0.17225184
82	0x3e46968a	0.19393364
83	0x3edf4909	0.4361041
84	0xbe08cad6	-0.13358626
85	0x3d005e8c	0.031340167
86	0x3e97b116	0.29627293
87	0x3e867019	0.262574
88	0x3d5e1bde	0.054225795
89	0x3ed0d94e	0.4079079
90	0x3c0aa965	0.008463238
91	0x3cd392f7	0.025826914
92	0x3eba2783	0.3635827
93	0x3f0092e5	0.50224143
94	0x3ecae889	0.39630535
95	0x3eed02dc	0.46291244
96	0x3df2f6f8	0.11863512
97	0xbe49b2bf	-0.19697092
98	0x3dc59541	0.096476085
99	0x3c2e2c44	0.010630671
100	0xbecffd2d	-0.40622845
101	0x3e245c8e	0.16050932
102	0xbc0448bd	-0.008073983
103	0x3f0fc4c2	0.56159604
104	0xbec7e77d	-0.390438
105	0xbe28e88e	-0.16494963
106	0x3ebddb89	0.37081555
107	0x3eedbba2	0.46432215
108	0xbde829c4	-0.11336091
109	0x3e9941aa	0.2993291
110	0xbd003d08	-0.031308204
111	0x3e691530	0.22761989
112	0xbd96ce6a	-0.07363589
113	0xbe6b9940	-0.23007679
114	0xbe0c6a55	-0.13712437
115	0x3dbbb337	0.09165042
116	0x3eabed16	0.3357932
117	0xbb344188	-0.002750488
118	0x3d45b91b	0.048272233
119	0x3e0e1302	0.13874438
120	0x3ebbe419	0.36697462
121	0x3c93299e	0.01796418
122	0x3ec31b58	0.381068
123	0xbdae6fa5	-0.08517388
124	0x3f0f2229	0.559115
125	0x3e351369	0.17683186
126	0x3ee0a8a1	0.43878654
127	0x3ed048aa	0.40680438
128	0xbe0369e5	-0.12833364
129	0x3df1a408	0.117988646
130	0xbdf4f3cf	-0.11960565
131	0xbe0ab108	-0.13544095
132	0x3e341b8a	0.1758863
133	0xbb9ee051	-0.004848518
134	0xbe4610ee	-0.19342396
135	0x3e48502b	0.19561832
136	0xbe6429b9	-0.22281541
137	0xbd849f84	-0.06475738
138	0xbe699534	-0.22810823
139	0x3e97e37b	0.2966574
140	0x3da150b1	0.07876719
141	0x3e72ec06	0.23722848
142	0xbdc8a985	-0.09797958
143	0x3dcaf57d	0.099101044
144	0x3e79d309	0.2439691
145	0x3be3a8ef	0.0069476287
146	0xbe31eed5	-0.17376263
147	0x3e006311	0.12537791
148	0x3e8a635c	0.2702893
149	0x3e9292e2	0.28627688
150	0x3ed38dd5	0.41319147
151	0x3e9abf89	0.30224255
152	0xbe43b9f5	-0.19113906
153	0xbd8b2993	-0.06795039
154	0x3ea1153b	0.3146151
155	0xbdf653f2	-0.1202773
156	0x3ad5350b	0.0016266418
157	0xbe6e35ff	-0.23262785
158	0xbb8dd3a2	-0.004328207
159	0xbddea0be	-0.10870503
160	0x3ca15710	0.019694835
161	0x3ea45b9e	0.32101148
162	0xbf217cd1	-0.6308108
163	0xbe8ea554	-0.2786051
164	0xbd21dc99	-0.03951702
165	0xbdeb0333	-0.114752196
166	0xbcdb3030	-0.026756376
167	0xbe793dfd	-0.24340053
168	0xbf209867	-0.6273255
169	0xbeddf057	-0.43347427
170	0xbf1abe57	-0.60446686
171	0xbeef1df6	-0.46702546
172	0xbee17f42	-0.44042403
173	0x3e278084	0.16357619
174	0xbf09f577	-0.53890175
175	0xbde83b78	-0.11339468
176	0xbf2c6eec	-0.67356753
177	0xbe8a9e9f	-0.27074143
178	0xbd7cc3a4	-0.061710015
179	0xbdb1ca8b	-0.0868121
180	0xbf0b20ad	-0.54346734
181	0x3eebabac	0.46029413
182	0xbebc3dec	-0.36765993
183	0xbe8ddec6	-0.27709025
184	0xbef70162	-0.48243243
185	0xbddd817c	-0.10815713
186	0xbe832ef8	-0.25621772
187	0x3ad8340f	0.0016495007
188	0xbed3930e	-0.4132313
189	0xbd4f55c1	-0.05061889
190	0xbf087b11	-0.53312784
191	0xbe9ea71f	-0.30986878
192	0x3dcbb8fc	0.09947392
193	0x3df071d0	0.11740458
194	0xbe11797f	-0.14206503
195	0xbe62bff4	-0.22143537
196	0x3db07088	0.08615214
197	0xbdd2944c	-0.10282192
198	0x3d4ed58f	0.050496634
199	0xbd44ba58	-0.048029274
200	0x3d792ca4	0.06083359
201	0xbaf79ecc	-0.001889193
202	0x3e6e38d3	0.23263864
203	0x3d6ba0a7	0.057526257
204	0x3ed8ddfe	0.42356867
205	0xbdc2ba09	-0.0950814
206	0xbce6c8b2	-0.02817187
207	0x3e2ff979	0.1718501
208	0xbdb65e81	-0.08904744
209	0x3e582e5a	0.21111432
210	0x3d768f0c	0.060195014
211	0xbde1df95	-0.11028973
212	0x3d6bdd04	0.057583824
213	0x3ec534ec	0.3851694
214	0xbe267bcd	-0.16258164
215	0x3cb3dac5	0.021954903
216	0xbe866077	-0.26245472
217	0xbe418b68	-0.18900836
218	0xbe6513a9	-0.22370781
219	0x3e497c62	0.19676355
220	0xbd872ca7	-0.06600314
221	0x3e4f23ad	0.20228453
222	0xbe9d4f4d	-0.30724564
223	0x3e124c3f	0.14286898
224	0xbe5e2536	-0.21693882
225	0x3e0e6678	0.13906276
226	0xbe90341a	-0.2816475
227	0xbf0c2316	-0.54741037
228	0x3eb90909	0.36139706
229	0x3de1c5ce	0.110240564
230	0xbe8feeeb	-0.28111967
231	0xbed21f4b	-0.410395
232	0x3e35e566	0.1776329
233	0x3f081e99	0.5317169
234	0xbdaf40f2	-0.08557309
235	0xbe6ea4b4	-0.23305017
236	0x3ed2df4d	0.4118599
237	0x3e893e28	0.26805234
238	0xbe2e7cc5	-0.17039783
239	0xbd9a0b4d	-0.07521687
240	0x3e12c556	0.1433309
241	0x3eecfb4f	0.46285483
242	0xbef0467a	-0.4692877
243	0xbe9ef3f7	-0.31045505
244	0x3e5e2cdf	0.21696804
245	0x3eb2d4a4	0.34927857
246	0xbe1cadc6	-0.15300664
247	0xbec5a829	-0.3860486
248	0x3e9a1caf	0.3010001
249	0x3e4f6b1f	0.20255707
250	0xbe3f324c	-0.1867153
251	0xbf0f7eb7	-0.56052727
252	0x3e3adcf4	0.1824835
253	0x3da57a6a	0.08079989
254	0xbcc12ec4	-0.02358187
255	0xbef855a3	-0.48502836
